tests/test_data/forcefields/nequip/nequip_ff_sr_ti_o3.nequip.pth (torch, 254215 bytes, 26 tensors)

bessel_weights f4 [8]
0	0x4032d685	2.7943432
1	0x40c9a275	6.301081
2	0x4113409d	9.203275
3	0x4143a209	12.227059
4	0x417f5cb6	15.9601345
5	0x4194fdcf	18.62393
6	0x41b239ae	22.278164
7	0x41c7c9d0	24.973541

weight f4 [24]
0	0xba4a13b8	-0.0007708627
1	0xbefcbdf5	-0.49363676
2	0xbf1d01cf	-0.61330885
3	0xbf69da23	-0.91348475
4	0x3b55b2d6	0.0032607815
5	0x3f6aca9b	0.917154
6	0x3d5aab27	0.05338588
7	0xbf34f57a	-0.7068707
8	0xbbdb34db	-0.0066896505
9	0xbe0dcaaa	-0.13846841
10	0x3f636bec	0.8883655
11	0xc007ed83	-2.1238716
12	0x400593f4	2.0871553
13	0xbef54d9e	-0.4791078
14	0x3fa210ce	1.2661378
15	0xbfbb6020	-1.463871
16	0xbf6f63f7	-0.9351191
17	0xbfd74655	-1.6818339
18	0xbf0d41df	-0.55178636
19	0x3f833d45	1.0253073
20	0x3f8ebb22	1.1150858
21	0x3eed1ee8	0.46312642
22	0x3fd86af4	1.690764
23	0xbf037f47	-0.51366085

output_mask f4 [8]
0	0x3f800000	1.0
1	0x3f800000	1.0
2	0x3f800000	1.0
3	0x3f800000	1.0
4	0x3f800000	1.0
5	0x3f800000	1.0
6	0x3f800000	1.0
7	0x3f800000	1.0

weight f4 [64]
0	0x3f9817fe	1.1882322
1	0x3ebd1d7f	0.36936566
2	0xbf287d84	-0.6581652
3	0xbfe58f12	-1.7934287
4	0xbf9406db	-1.1564592
5	0xbf39612b	-0.7241389
6	0xbf5c9912	-0.86171067
7	0x3fa3c611	1.279482
8	0xbd7f613b	-0.062348586
9	0xbf7ff298	-0.99979544
10	0xbfa46321	-1.2842752
11	0xbfe51412	-1.789675
12	0xbf89684f	-1.0734957
13	0xbfbd618c	-1.4795394
14	0x3eda265e	0.42607397
15	0x3f1e36e5	0.6180251
16	0xbea13166	-0.31483
17	0xc025c238	-2.5899792
18	0xbfa1fe75	-1.2655779
19	0xbf3e32a2	-0.7429601
20	0x3f7ab4f3	0.97932357
21	0xbe515501	-0.20442583
22	0xbd471cc9	-0.048611436
23	0x3f0dbb9c	0.55364394
24	0x3f6cbfb7	0.92480034
25	0xbecd5ac3	-0.40108308
26	0x3f5bce4a	0.8586165
27	0xbd6b5e29	-0.057462845
28	0xbc2d1cff	-0.010565995
29	0xc00d9713	-2.2123458
30	0x3e822274	0.2541691
31	0xbeeb38b0	-0.45941687
32	0xbebc6f39	-0.36803606
33	0xbedf8283	-0.4365426
34	0xbf9be85c	-1.2180285
35	0xbfb2818e	-1.3945787
36	0x3ef7c3bc	0.4839152
37	0x3e8b74f8	0.27237678
38	0x3e136516	0.1439403
39	0x3fd07ee9	1.628873
40	0xbf077de4	-0.5292647
41	0x3e87b303	0.26503763
42	0xbf0d9a94	-0.5531399
43	0x3f34de65	0.7065185
44	0x3fed7401	1.8551027
45	0x3defccda	0.11708994
46	0x3fa6c3d1	1.3028508
47	0xbfaaaf7b	-1.3334802
48	0x3fb84255	1.4395243
49	0x3f3d00ee	0.73829544
50	0x3f0dc513	0.55378836
51	0xbffd51a4	-1.979054
52	0x3fb02695	1.3761774
53	0x3fe8c03c	1.8183665
54	0xbf7a7c98	-0.97846365
55	0x3c82d8ce	0.015972521
56	0x3e460428	0.19337523
57	0xbfbeb8d8	-1.490016
58	0xbf0df995	-0.55458957
59	0x3f9e58ca	1.2370846
60	0xbf9aed4e	-1.210367
61	0x3f623cf4	0.8837426
62	0x3d76aff9	0.060226414
63	0x3fcfec24	1.6243939

output_mask f4 [8]
0	0x3f800000	1.0
1	0x3f800000	1.0
2	0x3f800000	1.0
3	0x3f800000	1.0
4	0x3f800000	1.0
5	0x3f800000	1.0
6	0x3f800000	1.0
7	0x3f800000	1.0

weight f4 [8, 16]
0	0x3e615128	0.22003615
1	0xbf80f348	-1.0074244
2	0xbfaef107	-1.3667306
3	0xc02753e4	-2.6144953
4	0x3fc71d3b	1.5555795
5	0xbfb11d53	-1.3837074
6	0xbf2fe356	-0.6870626
7	0x3f2876ba	0.6580616
8	0xbf2fe09e	-0.68702114
9	0x3f0ef4ef	0.5584249
10	0x3ed738ba	0.42035466
11	0xbf900cc2	-1.1253893
12	0x3f9429ff	1.1575316
13	0xbf0e65c2	-0.5562402
14	0xbffd3c8a	-1.97841
15	0xbf1d2416	-0.6138319
16	0xbee4396a	-0.44575053
17	0x3fb897a6	1.442128
18	0xbfa73063	-1.3061641
19	0xbebca17a	-0.36841947
20	0xc033678e	-2.8031955
21	0x3f41b0be	0.7566031
22	0xbf5a0c3e	-0.8517493
23	0x3f527dc5	0.8222316
24	0xbf809a2b	-1.0047048
25	0xbf2cc8ae	-0.6749371
26	0x406a9f2e	3.6659656
27	0xbebc26a4	-0.3674823
28	0x3e7410c9	0.23834528
29	0x3f4e1d73	0.80513686
30	0x3f675145	0.9035838
31	0x3fc1f66f	1.515333
32	0xbfd47af0	-1.6600018
33	0x3d62a77b	0.055335503
34	0x3f39b3f5	0.7254022
35	0xbf2de17b	-0.6792218
36	0x3f3cb64a	0.7371565
37	0x3f6a6203	0.91555804
38	0x3ebd1bd8	0.36935306
39	0xbfbd678f	-1.4797229
40	0xbf75da45	-0.9603618
41	0x3f6cbf8e	0.9247979
42	0x3f80ab26	1.005223
43	0x3cc62ff8	0.024192795
44	0x3f89a193	1.0752434
45	0x3f5fad76	0.87374055
46	0x3f79dcdf	0.9760265
47	0x40309abe	2.7594447
48	0xbf9cffa3	-1.2265514
49	0x4002d413	2.044194
50	0x3f8e72be	1.1128767
51	0x3fdea95a	1.7395432
52	0x3ef5b43a	0.47989064
53	0x3f923a5d	1.1424061
54	0xbee8cdd7	-0.45469543
55	0x3ff597a4	1.9186902
56	0xbf7c4ea8	-0.9855752
57	0xbebed447	-0.3727133
58	0x3fc024a6	1.5011184
59	0xbf88f9ed	-1.0701271
60	0xbd8dad95	-0.06917874
61	0xbf312404	-0.6919558
62	0x3d492c04	0.049114242
63	0xbf4813b3	-0.7815506
64	0x400ad165	2.1690304
65	0xbf92439a	-1.142688
66	0x3f4a644c	0.7905929
67	0xbf3b42c5	-0.7314876
68	0xbfbd21b1	-1.4775907
69	0xbfd3ae22	-1.6537516
70	0x3f064f57	0.52464813
71	0x3f1ebc1b	0.62005776
72	0x3ee3d1a5	0.44495884
73	0x4007af7b	2.1200855
74	0xbe0d8527	-0.13820325
75	0xbf1211ad	-0.5705822
76	0x3d96564c	0.073406786
77	0xbef763ea	-0.48318416
78	0xbecc42dd	-0.39894763
79	0xbc3205e5	-0.010865663
80	0x3da263eb	0.07929214
81	0x3ee1f10e	0.44129223
82	0x3e8aedae	0.2713446
83	0xbe7ba9f0	-0.24576545
84	0xbf8f383e	-1.1189039
85	0xbe085f82	-0.13317683
86	0x3ec6d70c	0.38835943
87	0xbdfa3a05	-0.122180976
88	0xbe28c9a9	-0.16483177
89	0xbe959135	-0.29212347
90	0x3ec81fb5	0.3908669
91	0x3fb28d96	1.3949459
92	0xbff6fb40	-1.9295425
93	0xbde3d3e6	-0.11124401
94	0xbdbad93c	-0.091234654
95	0x3c5b3708	0.01337982
96	0xbf935f3d	-1.151344
97	0x3f440797	0.7657408
98	0xbf4362e8	-0.76322794
99	0xbef8b82c	-0.48578012
100	0x3d6e239f	0.05813944
101	0x3f4075bf	0.75179666
102	0xbf8fb742	-1.1227801
103	0xbf5e4b2a	-0.8683344
104	0x3dc9d86a	0.09855731
105	0xbfb028a4	-1.3762403
106	0x3f54fd48	0.83198977
107	0x3f1a0902	0.60169995
108	0xbe92a3cf	-0.286406
109	0x3fb67fee	1.4257791
110	0xbf7a7f51	-0.9785052
111	0x3f7e1944	0.992573
112	0x3e316dc4	0.17327029
113	0x3f87dfc3	1.0615162
114	0x3ea09273	0.31361732
115	0x3fb6aacb	1.4270872
116	0x3e060355	0.13087209
117	0xbe4d3a7f	-0.20041846
118	0xbfbf4d42	-1.4945452
119	0xbf81c9a1	-1.0139657
120	0xbff5924c	-1.9185271
121	0xbea0f0ca	-0.31433707
122	0x3f6be727	0.92149585
123	0x3f809dc2	1.0048144
124	0xbdd9ab5e	-0.10628389
125	0x3ebf9138	0.3741548
126	0x3f1ee1e4	0.6206343
127	0x3f4ecec5	0.80784255

weight f4 [16, 8]
0	0xbdbce2f8	-0.09222978
1	0xbfbeacb5	-1.4896456
2	0x3f6dea1a	0.92935336
3	0xbf40023f	-0.7500343
4	0x3f91d023	1.1391643
5	0x3f570571	0.8399268
6	0xbde1e426	-0.11029844
7	0xbef1545a	-0.47134668
8	0xbea56ff4	-0.32311976
9	0x3f8d3ff9	1.1035148
10	0x3f367c6b	0.71283597
11	0x3beebc45	0.007285627
12	0xbf338d5f	-0.7013759
13	0x3d4a57bd	0.04940008
14	0x3ebfaecb	0.37438044
15	0x400054a4	2.005166
16	0xc0043bf5	-2.0661595
17	0x3f5edda4	0.87056947
18	0x40037345	2.0539105
19	0x3f674522	0.90339863
20	0x3fca0290	1.5782032
21	0xbe3c5156	-0.18390402
22	0xbe120fd5	-0.14263852
23	0x3f62240c	0.88336253
24	0xbf62a45b	-0.88532037
25	0x3fb90c9a	1.4456971
26	0xbe9df77d	-0.3085288
27	0x3e03aba3	0.12858443
28	0x4010169a	2.2513795
29	0x3e9727f1	0.2952266
30	0x3faf05e7	1.3673676
31	0x3e27eb0a	0.16398254
32	0xbf43404e	-0.76269996
33	0xbf608807	-0.8770756
34	0xbf9f7258	-1.245677
35	0x3fa265f6	1.2687366
36	0xbfab7547	-1.3395165
37	0xbebe93b7	-0.37222072
38	0x3ea0a87c	0.31378543
39	0x3ff699bb	1.9265665
40	0xbfb02821	-1.3762246
41	0x3fca3aa4	1.5799146
42	0x3f5b6d5c	0.85713744
43	0x3f2277b0	0.6346388
44	0x3fb52738	1.4152594
45	0x3fb057b2	1.3776762
46	0x3f8a69aa	1.0813496
47	0x3f22ea07	0.6363835
48	0x3fc16eed	1.5111977
49	0xbed9a84e	-0.4251122
50	0x403cf8bc	2.9526815
51	0xbe841b57	-0.2580211
52	0x3f7cd542	0.98762906
53	0xc00ccd51	-2.2000315
54	0xbfcf6e16	-1.620547
55	0xbf23e787	-0.6402516
56	0x3fa9a379	1.3253013
57	0x3c98a639	0.018633949
58	0xbfd65561	-1.6744806
59	0x3f4f7e91	0.810525
60	0xbf6853d2	-0.907529
61	0x3f473130	0.7780943
62	0x3e872487	0.26395056
63	0xbf9f73e1	-1.2457238
64	0xbf501bea	-0.81292593
65	0xbf6c5d9c	-0.92330337
66	0xbfca686e	-1.581312
67	0x3fa394cd	1.2779785
68	0xbf3d8062	-0.7402402
69	0xbf09653a	-0.53670084
70	0xc023cb3f	-2.5592802
71	0xbf665c98	-0.89985037
72	0x3f28e507	0.6597447
73	0xbfa8b488	-1.3180094
74	0x3f4d83ea	0.8027941
75	0x3f62d9dc	0.8861368
76	0x3f820d65	1.0160338
77	0xbff0f58b	-1.8824934
78	0xbef7aa22	-0.4837199
79	0xbfc227a5	-1.5168349
80	0x3ee4e966	0.4470932
81	0xbeec4974	-0.4614979
82	0x3e9782c7	0.29591963
83	0x3ec3888e	0.3819012
84	0x3f14377b	0.57897156
85	0x3f834231	1.0254575
86	0x3e13f351	0.14448287
87	0xbea8700f	-0.32897994
88	0x3ec3ad24	0.38218033
89	0x40384e16	2.879766
90	0xbf67ebfc	-0.9059446
91	0xbfc3b1ea	-1.528867
92	0xbebe4fbc	-0.37170208
93	0x3f2d2dfe	0.67648304
94	0xbfd19ae1	-1.637539
95	0xbea678b7	-0.32513973
96	0x3f051445	0.51984054
97	0x3e54a836	0.20767292
98	0x3fcd5475	1.6041399
99	0xbe0b9fe0	-0.13635206
100	0xbf86d442	-1.0533526
101	0x3ef0362e	0.46916336
102	0x3e38f1e2	0.18061021
103	0x3f816425	1.0108687
104	0x3ef98557	0.48734543
105	0x3fba5b91	1.4559194
106	0xbf1cf048	-0.6130414
107	0xbf32fecf	-0.6992006
108	0x3f304136	0.68849504
109	0xbfe2257e	-1.7667692
110	0x3fb1a28c	1.387773
111	0x3f384cd6	0.7199224
112	0x3dee102e	0.1162418
113	0x3e074bcc	0.13212508
114	0xbf34e92b	-0.70668286
115	0x3f70e8d8	0.9410529
116	0x3ed585d8	0.41703677
117	0x3fb11911	1.3835775
118	0xbfce0504	-1.6095281
119	0xbf31c7b8	-0.6944537
120	0xbdcb6d08	-0.099329054
121	0x3febae7c	1.8412623
122	0x3dd441a2	0.10364081
123	0xbfd6f59d	-1.6793705
124	0x4025392f	2.5816152
125	0xbf346d28	-0.7047906
126	0xbfa1e0f8	-1.264678
127	0x3ed3c087	0.41357824

output_mask f4 [8]
0	0x3f800000	1.0
1	0x3f800000	1.0
2	0x3f800000	1.0
3	0x3f800000	1.0
4	0x3f800000	1.0
5	0x3f800000	1.0
6	0x3f800000	1.0
7	0x3f800000	1.0

weight f4 [64]
0	0x3f806e5b	1.0033678
1	0x3fd0a2a9	1.629964
2	0x3eb3f9b5	0.3515145
3	0xbf4368b4	-0.7633164
4	0x3f609850	0.8773241
5	0x3f5aece4	0.85517716
6	0x3e2e8bff	0.17045592
7	0xbfdb952c	-1.7154899
8	0xc01dff11	-2.468693
9	0x3f895765	1.0729796
10	0xbf4b2a0a	-0.7936102
11	0x3f4c4668	0.7979493
12	0xbed6b420	-0.419343
13	0xc012ac65	-2.2917721
14	0x3ffe20dc	1.9853778
15	0x3eca46d3	0.3950716
16	0x3fc328b2	1.5246794
17	0x3f493db2	0.78609765
18	0x3de3885b	0.11109992
19	0x3f0c4406	0.54791296
20	0xbffddf81	-1.9833833
21	0xbfa0659e	-1.2531011
22	0x3f15822e	0.58401763
23	0xbf683262	-0.9070188
24	0x3f095c1d	0.5365618
25	0xbf9e24bf	-1.2354964
26	0x3e68810f	0.22705482
27	0x3f543e8f	0.82907957
28	0xbecfb39e	-0.40566725
29	0xbfdc748f	-1.7223071
30	0xbfef74e5	-1.8707548
31	0x3f3fb5c1	0.7488671
32	0x3f1d63c9	0.61480385
33	0x3f4b264f	0.7935533
34	0x3f9c24bd	1.2198712
35	0x3e2c62c9	0.16834559
36	0x3d6b2de4	0.05741681
37	0xbff4b90b	-1.9118971
38	0x3f142d79	0.57881886
39	0xbef0a41a	-0.470002
40	0xbec2398a	-0.37934524
41	0x3fa4add9	1.2865554
42	0x3f8de311	1.108492
43	0xbf276295	-0.653848
44	0x3f2f7b72	0.6854774
45	0xbe07773e	-0.13229081
46	0x3e722f64	0.2365089
47	0x3f41a76b	0.75646085
48	0xbefc1e8a	-0.4924205
49	0xbf31f92e	-0.69520843
50	0xc00bf3a1	-2.186745
51	0x3f642a5c	0.89127135
52	0x3e23fe9e	0.16015097
53	0xbff33d26	-1.9003036
54	0xbe146847	-0.14492904
55	0x3ecbaf5a	0.3978222
56	0x403c2fcb	2.940417
57	0xc007f8e4	-2.124566
58	0xbf2d06a7	-0.67588276
59	0xbfc68b79	-1.5511314
60	0xbf738af6	-0.9513391
61	0xbec2a0bd	-0.3801326
62	0xbf4b7b73	-0.79485244
63	0x3f55abcc	0.83465266

output_mask f4 [8]
0	0x3f800000	1.0
1	0x3f800000	1.0
2	0x3f800000	1.0
3	0x3f800000	1.0
4	0x3f800000	1.0
5	0x3f800000	1.0
6	0x3f800000	1.0
7	0x3f800000	1.0

weight f4 [192]
0	0x3d10c76b	0.03534643
1	0xbed7a8e5	-0.42121044
2	0x3d8adbc6	0.067802
3	0x3b29d800	0.00259161
4	0xbf8f5b9f	-1.1199836
5	0xbf913ada	-1.1346085
6	0x3e1130f8	0.14178836
7	0x3f8b29b0	1.0872097
8	0x3e885e69	0.2663453
9	0x3f058c8e	0.52167594
10	0x3feb2f35	1.8373781
11	0xc0154ded	-2.3328812
12	0x3e03ba0c	0.1286394
13	0x3f9d74b1	1.2301236
14	0xbee7c060	-0.45263958
15	0x3f87f75e	1.0622365
16	0x3fc246e5	1.5177885
17	0xbfb05701	-1.3776551
18	0xbe6affe3	-0.22949176
19	0xbd8816f8	-0.06645006
20	0xbe57a731	-0.21059872
21	0xbe147bd0	-0.14500356
22	0xbfd248d6	-1.6428478
23	0x3e59f56c	0.21285027
24	0x3f5d8eb3	0.86545867
25	0xbfc7f7ba	-1.5622475
26	0x3ea316f9	0.31853464
27	0xbe811d94	-0.2521788
28	0xbf708d74	-0.9396584
29	0xbf4b4dde	-0.7941569
30	0xbee772e4	-0.45204842
31	0xbf3c740a	-0.7361456
32	0x3f8fc6f1	1.1232587
33	0xc012f84c	-2.2964048
34	0x3e8e64b8	0.27811217
35	0x401b5a2d	2.427379
36	0x3faf2423	1.3682903
37	0x3eb4c4aa	0.35306293
38	0x3f7e4b16	0.9933332
39	0xbe3d073a	-0.18459788
40	0x3cfd394f	0.030911116
41	0x3f082479	0.5318065
42	0xbe84692d	-0.25861493
43	0xbfa5530c	-1.2915969
44	0x3fc7ccd7	1.5609387
45	0xbe77688d	-0.24160977
46	0x3e637736	0.22213444
47	0x3f093186	0.5359119
48	0xbf86b998	-1.0525389
49	0x3ef8ad6b	0.48569807
50	0x3bb63836	0.0055609
51	0xbe53c40d	-0.20680256
52	0x3f42ad61	0.76045805
53	0xbeb5f7f4	-0.35540736
54	0x3f86e2df	1.0537986
55	0xbde9ba4c	-0.114124864
56	0x3daecccc	0.08535156
57	0xbe3fa868	-0.18716586
58	0x3c79002b	0.015197794
59	0xbebdcf58	-0.37072253
60	0x3e577ada	0.21042958
61	0x3eda320d	0.4261631
62	0x3e8daec8	0.2767241
63	0xc003359b	-2.0501468
64	0xbfe94bf3	-1.8226303
65	0xbf843584	-1.0328832
66	0xbf0748cc	-0.52845454
67	0xbef62b9e	-0.48080152
68	0xbe67ceaa	-0.2263743
69	0xbfbb6f96	-1.4643428
70	0xbfb404aa	-1.4063923
71	0xbe4bfb4f	-0.19920085
72	0xbf1a62d9	-0.6030708
73	0x3dd54d3b	0.10415121
74	0xbe304575	-0.17213996
75	0xbfa322ff	-1.2745055
76	0x3fb376fd	1.4020687
77	0xbf243f36	-0.6415895
78	0x3e3070b7	0.17230497
79	0xbf89f1f6	-1.0776966
80	0xbe6db5e5	-0.23213919
81	0x3f2c886e	0.67395675
82	0xbe7bd33c	-0.24592298
83	0xbf13f47e	-0.5779494
84	0xc00f8c23	-2.2429283
85	0x3f856597	1.0421628
86	0xbf37d0c0	-0.718029
87	0x3f86d3e0	1.0533409
88	0xbedeaf07	-0.4349291
89	0xbe42052c	-0.18947285
90	0xbec33ff0	-0.38134718
91	0x3fd13b4e	1.6346223
92	0x3e8bd813	0.2731329
93	0xc053128c	-3.298007
94	0x3fc5707b	1.5424951
95	0x3f323c6b	0.6962344
96	0x3f41ea44	0.75748086
97	0xbf7b7c7e	-0.98236835
98	0x3ea8dc8d	0.32980767
99	0x3f6fef59	0.9372459
100	0x3efa3f8c	0.48876607
101	0xbfad39e4	-1.3533292
102	0xbfb36cdd	-1.4017597
103	0x3ed7c01c	0.42138755
104	0xbfb6e673	-1.4289078
105	0xbf2254b5	-0.634105
106	0xbf6e1b65	-0.9301055
107	0xbf53c70e	-0.8272561
108	0x3e15859b	0.14601748
109	0x3fb86c7f	1.440811
110	0xbdd1401d	-0.10217307
111	0x3ec3ea08	0.3826449
112	0xc023115f	-2.5479352
113	0xbfd530b1	-1.6655484
114	0xbf75921f	-0.9592609
115	0x3fd1ac4b	1.6380705
116	0xbfde81b7	-1.7383336
117	0xbfd0ee1e	-1.6322668
118	0xbfb4cc5b	-1.4124864
119	0xc020281d	-2.5024483
120	0xbcba2804	-0.022724159
121	0xbe7adcd7	-0.24498306
122	0xbf1463ee	-0.5796498
123	0x3f2680db	0.6504037
124	0xc04e7f0e	-3.2265048
125	0x3ebd3111	0.36951497
126	0x3d766daa	0.060163178
127	0xbe134cfe	-0.14384839
128	0x3f3a9a5e	0.72891796
129	0x3f53a30c	0.82670665
130	0x3ecd65a7	0.40116617
131	0x3f88a57d	1.0675503
132	0xbffeea1c	-1.9915195
133	0x3fc96d91	1.5736562
134	0x3fbf861a	1.49628
135	0x3fcdaf7c	1.6069179
136	0x40122ac7	2.283861
137	0xbfc189db	-1.5120195
138	0xbc3d92ba	-0.011570627
139	0x402dec0a	2.7175317
140	0xbe8256f2	-0.2545696
141	0x3f8083dc	1.004024
142	0xbe65de64	-0.22448117
143	0xbc9573b6	-0.018243652
144	0x3ebced96	0.36900014
145	0xbf91bf91	-1.1386586
146	0xbe8d013a	-0.27539998
147	0xc002fe1f	-2.0467603
148	0x3fb89da4	1.4423108
149	0x3e785def	0.24254583
150	0xbec5247c	-0.38504398
151	0x3f96ab77	1.1771077
152	0xbff0e791	-1.8820668
153	0x3f93d29b	1.1548647
154	0xbd1dec7f	-0.03855562
155	0x3f8d2076	1.1025531
156	0x3edf43ba	0.4360636
157	0xbf425188	-0.75905657
158	0x3e29b71f	0.16573761
159	0x3d139bb9	0.03603718
160	0x3e26e81d	0.16299482
161	0xbfca3465	-1.579724
162	0xbec594e1	-0.38590148
163	0xbfb0919e	-1.3794439
164	0xbe9711b2	-0.29505688
165	0x3c56aba5	0.013102447
166	0xbe6b16a5	-0.22957857
167	0x3f4514ab	0.7698466
168	0x3e1355ec	0.14388245
169	0x3f346f23	0.7048208
170	0xbe83fc16	-0.25778264
171	0x3f355a71	0.7084113
172	0xbe1813e4	-0.14851338
173	0xbfbd4c9f	-1.4789008
174	0xbf9721d5	-1.18072
175	0xbf01376c	-0.5047519
176	0x3e5dc2c2	0.21656325
177	0xbe812f36	-0.25231332
178	0x3fc37af6	1.52719
179	0xbe590442	-0.2119303
180	0x4014cf07	2.325136
181	0x40028be1	2.0397875
182	0x3e408095	0.1879905
183	0x3fdc3b76	1.7205646
184	0xbf151fd8	-0.58251715
185	0x3ea3278e	0.31866115
186	0x3f01296b	0.50453824
187	0x3f7a419b	0.97756356
188	0x3fc259d6	1.5183666
189	0xc00d12c2	-2.20427
190	0x3fac7836	1.3474185
191	0x3f8b4fd3	1.0883735

output_mask f4 [8]
0	0x3f800000	1.0
1	0x3f800000	1.0
2	0x3f800000	1.0
3	0x3f800000	1.0
4	0x3f800000	1.0
5	0x3f800000	1.0
6	0x3f800000	1.0
7	0x3f800000	1.0

weight f4 [64]
0	0xbf72fa8c	-0.94913554
1	0x3fb4d457	1.4127301
2	0x3f8f636b	1.1202215
3	0xbfadb421	-1.3570596
4	0x3fbbbc39	1.4666816
5	0x3f04c254	0.5185902
6	0xbf0ca1a4	-0.54934144
7	0xbd8a8a85	-0.06764702
8	0x3f8a0d14	1.0785241
9	0xbff12e36	-1.8842227
10	0x3f92b5b0	1.1461697
11	0x3fac9511	1.3482991
12	0xbeacce24	-0.33751023
13	0xbf0378d7	-0.5135626
14	0xbf199c02	-0.60003674
15	0xbe9606dd	-0.2930211
16	0x3ef32e98	0.47496486
17	0xbd7f49c7	-0.06232622
18	0x3fcd0584	1.6017308
19	0xbfaf87ae	-1.3713281
20	0xbeedad50	-0.4642129
21	0xbe3eb929	-0.1862532
22	0xbe781874	-0.24228078
23	0x3ef1fd96	0.47263783
24	0xbe80d396	-0.25161427
25	0xbf758e62	-0.95920384
26	0x3f45d1db	0.7727334
27	0xbf0e839f	-0.5566959
28	0x3d9812a1	0.07425428
29	0xc0152444	-2.3303385
30	0xbe6d7e70	-0.23192763
31	0x3f9ca06b	1.2236456
32	0x3f0dcdf3	0.5539238
33	0xbf9fd811	-1.2487813
34	0xbf3f2548	-0.7466626
35	0x3f98e017	1.1943387
36	0xbf1b6de2	-0.6071454
37	0xbf9c7023	-1.2221721
38	0xbf8cf18b	-1.1011213
39	0xbfb15d79	-1.385665
40	0xbf8d3fd6	-1.1035106
41	0x40157feb	2.3359325
42	0x3dc07c22	0.093986765
43	0xbd49bd42	-0.049252756
44	0x3f93ec37	1.1556462
45	0x3f1948fd	0.59876996
46	0x3de7fb32	0.113272086
47	0xbf8bf660	-1.0934563
48	0x3f38cd38	0.7218814
49	0xbf9f8ff8	-1.2465811
50	0xbcd58ea1	-0.026068987
51	0x3ed39caa	0.41330463
52	0xc0196c4e	-2.3972354
53	0x3fb84f7b	1.4399256
54	0x3fa2147a	1.2662499
55	0xbee15335	-0.44008794
56	0xbfbe3f27	-1.4863023
57	0x3e9d7a66	0.30757445
58	0x40130f43	2.2978065
59	0xbf8c2628	-1.0949144
60	0xbe1bb325	-0.15205057
61	0x3e171cca	0.14757076
62	0xbe72a20c	-0.23694628
63	0xbf54ad3e	-0.83076847

output_mask f4 [8]
0	0x3f800000	1.0
1	0x3f800000	1.0
2	0x3f800000	1.0
3	0x3f800000	1.0
4	0x3f800000	1.0
5	0x3f800000	1.0
6	0x3f800000	1.0
7	0x3f800000	1.0

weight f4 [8, 16]
0	0x3eb64843	0.35602006
1	0xbf09e6d6	-0.5386785
2	0x3e3c1296	0.18366465
3	0xbe88e6e7	-0.26738665
4	0x3f187908	0.5955968
5	0x3f3feb18	0.749681
6	0x3da91fc2	0.082580104
7	0xbfa993ef	-1.3248271
8	0x3e81e6c8	0.25371385
9	0xbe966fb3	-0.29382095
10	0xbf8f2e60	-1.1186028
11	0x4017b7c6	2.3705916
12	0x3f317ac2	0.6932794
13	0x3f1b4066	0.6064514
14	0xbf4d95fb	-0.8030698
15	0x3b6d9621	0.0036252814
16	0x3f335719	0.70054775
17	0x3f7dae1a	0.9909378
18	0xbe352adb	-0.1769213
19	0xbf06a578	-0.52596235
20	0x3fb198e6	1.3874786
21	0xbe8d328f	-0.27577636
22	0x3f8bbd77	1.0917195
23	0xbf2568a7	-0.6461281
24	0x3fb8eeee	1.4447916
25	0xbe8d7436	-0.27627724
26	0xbf5552b7	-0.8332934
27	0x4006230f	2.0958898
28	0x3f0e432f	0.55571264
29	0xbea4f7f0	-0.3222041
30	0x3eca808b	0.39551196
31	0xbf0dcc54	-0.55389905
32	0xbf19d3cb	-0.60088795
33	0x3f79a748	0.97520876
34	0x3fb5149e	1.4146917
35	0xbfb5601b	-1.4169954
36	0xbeb3938d	-0.3507351
37	0xbfa81414	-1.3131127
38	0x3e10c982	0.14139369
39	0x3dbb1fa5	0.09136895
40	0xbc650e5f	-0.013980477
41	0xbec885e5	-0.39164653
42	0xbeafe8e0	-0.34357357
43	0x3f3fba29	0.7489343
44	0x3f7a4e2c	0.9777553
45	0x3f173d15	0.5907758
46	0x3ebc0125	0.36719623
47	0x3fa690fa	1.3012993
48	0x3f68ea5b	0.909826
49	0x3f5e073b	0.8672978
50	0xbf55ba0a	-0.83487
51	0xbf71cb1e	-0.9445056
52	0xbf8969d0	-1.0735416
53	0x3ecde5c0	0.40214348
54	0xbf8157ff	-1.0104979
55	0x3f063242	0.5242044
56	0x3e5b2eb4	0.21404535
57	0xbe7f096e	-0.24905941
58	0xc0017cb0	-2.0232353
59	0xbf2e3b09	-0.6805883
60	0x3e22ee11	0.15911128
61	0x3d3adfb1	0.045623485
62	0xbfc6f682	-1.5543978
63	0x3d60e82e	0.054908924
64	0x3f61b933	0.88173217
65	0xbf794ae5	-0.97379905
66	0x3eeb04d5	0.45902124
67	0xbfab02bb	-1.3360208
68	0xbd851f4b	-0.06500109
69	0xc018f47b	-2.389922
70	0x3ef0cd29	0.47031525
71	0x3f91ce4b	1.1391081
72	0x3e9240af	0.28564975
73	0xbf9f7507	-1.2457589
74	0x3ec71224	0.38881028
75	0x3e672f21	0.22576572
76	0xbf1e39f0	-0.61807156
77	0x3e6c55e2	0.23079637
78	0xbf248d09	-0.642777
79	0xbf44e80a	-0.76916564
80	0xbe5ce17e	-0.21570393
81	0xbf7122f6	-0.9419397
82	0xbed01561	-0.4064131
83	0xbde4b229	-0.11166794
84	0xbf37e73a	-0.718372
85	0xc007723f	-2.116348
86	0x3fef5c3e	1.8700025
87	0xbf91821d	-1.1367832
88	0x3e9f8347	0.31154844
89	0x3fcb3e62	1.5878413
90	0x3f52259d	0.82088643
91	0xbf51c952	-0.81947815
92	0xbe668d25	-0.2251478
93	0x3fba0ed3	1.4535774
94	0x3fb5b81e	1.4196813
95	0xbdaae9b8	-0.083453596
96	0x3ed5f9b9	0.41792086
97	0x400504ed	2.0784256
98	0x3d5b8244	0.053591028
99	0x3ff835d7	1.9391431
100	0x3e464b9f	0.19364785
101	0x3fbfe481	1.4991609
102	0xbedf71c9	-0.436415
103	0x40155d8f	2.3338354
104	0xbfc80672	-1.5626967
105	0x3f2ff5e6	0.68734586
106	0xbfca4164	-1.5801206
107	0x400a3df8	2.1600323
108	0x3f937d12	1.1522543
109	0x3ffe4554	1.9864907
110	0x3fcbb24e	1.5913789
111	0x3f0f598b	0.55996007
112	0x3f89bc64	1.0760617
113	0x3f8113e5	1.0084196
114	0xbfaec0bb	-1.3652567
115	0xbecc6ab7	-0.39925167
116	0x3f06187c	0.5238111
117	0x3f974479	1.1817771
118	0xbfc1bd0f	-1.5135821
119	0x3e987780	0.2977867
120	0xbff7faed	-1.9373451
121	0x3f38ce34	0.7218964
122	0xbfd423d1	-1.657343
123	0x40201dbc	2.5018148
124	0xbfb3f16b	-1.405805
125	0xbfbf6e8e	-1.4955614
126	0xbd2bfe82	-0.041990764
127	0x3dfc36a7	0.123151116

weight f4 [16, 8]
0	0xbf3151be	-0.69265354
1	0x3f007966	0.5018524
2	0x3e41c14d	0.18921395
3	0xbf5b7da2	-0.85738575
4	0xbefbb214	-0.491593
5	0x3e73ad2c	0.23796529
6	0x3f6b7702	0.91978467
7	0xbe2ed83b	-0.17074673
8	0xc00ea3c0	-2.2287445
9	0xbf2835b7	-0.6570696
10	0x3f4f53d9	0.80987316
11	0xbf1a1e44	-0.6020243
12	0xbde930f4	-0.1138629
13	0x40167a1b	2.3512027
14	0x3ffe2b7b	1.9857019
15	0x3f7ba560	0.9829922
16	0x3ec1671b	0.37773976
17	0x3eaee00b	0.34155306
18	0xbea8dc87	-0.3298075
19	0x3f098cfc	0.5373075
20	0xbef7d3e0	-0.48403835
21	0xbf740755	-0.9532369
22	0x3fb7119a	1.4302247
23	0x3ef26065	0.47339168
24	0xbfb4a557	-1.4112958
25	0x3f9a2db7	1.2045201
26	0x3f400e84	0.7502215
27	0xbefd9977	-0.49531147
28	0xbf896832	-1.0734923
29	0xbf849f7e	-1.0361173
30	0x3e5e1e1d	0.21691175
31	0x3e88d274	0.26723063
32	0xbf3662cb	-0.71244496
33	0xbfbb5d06	-1.4637764
34	0x3ebf76c9	0.37395313
35	0x3fb47be5	1.410031
36	0xbe839cf5	-0.25705686
37	0x3f0c8d22	0.5490285
38	0xbfcacc72	-1.5843642
39	0x3ef63420	0.48086643
40	0xbf998307	-1.1993111
41	0x40078f63	2.1181266
42	0x3e6fe6b9	0.23427857
43	0xbcd0f5b9	-0.025507795
44	0xbf8a3dd7	-1.0800122
45	0xbe2fd5c3	-0.17171387
46	0xbfa8cb04	-1.3186955
47	0xbe423f48	-0.18969452
48	0xbffc2fe2	-1.9702113
49	0xbf3d04dc	-0.7383554
50	0xc010c3f6	-2.2619605
51	0x3f31f738	0.6951785
52	0x400e2b35	2.2213871
53	0x3edd82e0	0.43263912
54	0xbec90b9e	-0.39266676
55	0x3fc2fbcf	1.5233096
56	0x3cfb3725	0.030665943
57	0xbfb6875d	-1.426006
58	0x3ea6d95c	0.32587707
59	0xc022f680	-2.5462952
60	0x3ee360ff	0.4440994
61	0x3fe7ae41	1.8100053
62	0x3f20f4a7	0.6287331
63	0xbf3366e3	-0.7007887
64	0xbe93e245	-0.28883567
65	0x3f4e83e1	0.8066998
66	0xbe606741	-0.21914388
67	0x3e44d02e	0.19220039
68	0x3e50de63	0.20397334
69	0xbf2cd4ae	-0.67512023
70	0x3d8d7c04	0.0690842
71	0xbdb259cc	-0.08708534
72	0x3ceb780b	0.028743764
73	0x3c9cf9c4	0.019162066
74	0x3f9f69c5	1.2454153
75	0xbdd5d542	-0.10441066
76	0x3d25247b	0.040317994
77	0x3d9ab4bd	0.07554004
78	0xbedd467d	-0.4321784
79	0x3ee7b477	0.4525487
80	0x3f890090	1.0703297
81	0xbf991911	-1.1960775
82	0xbde06573	-0.1095685
83	0x40027b7b	2.0387866
84	0x3f862d85	1.0482641
85	0x3f527327	0.8220696
86	0xbfd80515	-1.6876551
87	0x3f49677a	0.7867352
88	0xbe601023	-0.21881156
89	0x3fbd2b1c	1.4778781
90	0x3e560b98	0.2090286
91	0x3df6c734	0.12049714
92	0xbf3d77f0	-0.74011135
93	0x3fb925e7	1.4464692
94	0x3fae2686	1.3605506
95	0xbf9415d8	-1.1569166
96	0xbe9207ea	-0.28521663
97	0x3eb25d19	0.34836653
98	0x3e47b0d9	0.19501056
99	0xbdc1aa14	-0.09456268
100	0xbf9bd9e0	-1.2175865
101	0x3ff3246d	1.8995491
102	0xbf2244de	-0.63386333
103	0x3e7a27e0	0.24429274
104	0x3de4c537	0.11170428
105	0x3e6374e5	0.2221256
106	0x3f312894	0.6920254
107	0xbee218dc	-0.4415959
108	0xbf438bd2	-0.76385224
109	0xbed571ce	-0.4168839
110	0xbfd90ed6	-1.6957653
111	0x3e7e7809	0.24850477
112	0x3f961214	1.1724267
113	0x3ec6ae17	0.38804695
114	0x3e42f23d	0.19037719
115	0x3de46cf1	0.111535914
116	0xbf660120	-0.89845467
117	0xbe085c11	-0.1331637
118	0xbffd9996	-1.9812496
119	0xbd88fa89	-0.06688411
120	0xbf27b4a3	-0.65510005
121	0x3f57cb63	0.8429472
122	0x3e13a5a2	0.14418653
123	0xbe8e91d3	-0.2784563
124	0x40140a69	2.3131354
125	0x3f6f45d1	0.93465906
126	0x3f1008a3	0.5626318
127	0x3f212e8e	0.6296166

output_mask f4 [8]
0	0x3f800000	1.0
1	0x3f800000	1.0
2	0x3f800000	1.0
3	0x3f800000	1.0
4	0x3f800000	1.0
5	0x3f800000	1.0
6	0x3f800000	1.0
7	0x3f800000	1.0

weight f4 [64]
0	0xbfa4ae48	-1.2865686
1	0x3f3c0dff	0.73458856
2	0x40092472	2.1428494
3	0x3edb3729	0.4281552
4	0xbedc94fa	-0.4308241
5	0x3d9a8037	0.07543986
6	0xbf9847a6	-1.1896865
7	0xbea16a85	-0.3152658
8	0xbe4152b7	-0.1887921
9	0xbf212701	-0.6295014
10	0x3f07465f	0.5284175
11	0x3e1978ce	0.1498749
12	0xbf5d9fe1	-0.8657208
13	0x3f8b7f02	1.0898135
14	0x3e89acd8	0.26889682
15	0x3f8d346f	1.1031626
16	0x3f1413b8	0.5784259
17	0xbee24860	-0.44195843
18	0x401eac36	2.479261
19	0x403d2c91	2.955845
20	0xbfd2a223	-1.645573
21	0xbef23e1c	-0.4731301
22	0xc007a2b0	-2.1193047
23	0x3f834d5c	1.0257983
24	0xbeb05bbe	-0.34444994
25	0xbf7708bc	-0.964977
26	0x3e9dbef7	0.30809757
27	0x3e93d14c	0.28870618
28	0xbf3c6930	-0.73598003
29	0x3fad0d50	1.3519688
30	0xbfc42f9d	-1.532703
31	0x3fe4395f	1.7830008
32	0xbefc5c92	-0.49289376
33	0x3f49447d	0.7862013
34	0xbf8d8963	-1.1057552
35	0x3ceb8b5e	0.028752979
36	0x3df2b2b2	0.1185049
37	0x403ce8f0	2.9517174
38	0x3fc27827	1.5192918
39	0xbfa26c57	-1.2689313
40	0xbe8e0b61	-0.27743056
41	0x3f69781d	0.91198903
42	0xbe2a0eb1	-0.16607167
43	0x3f279184	0.65456414
44	0xbfbbef6f	-1.4682444
45	0xbf35962f	-0.70932287
46	0xbef810a7	-0.48450205
47	0x3f8c51b7	1.0962437
48	0x3f05ff89	0.5234304
49	0x3e8d686b	0.27618727
50	0xbfd68de4	-1.6762052
51	0xbfa2dc31	-1.2723447
52	0x3cf4594d	0.029827738
53	0x3e8edba3	0.27901945
54	0xbbccc74e	-0.006249345
55	0xbfc1c101	-1.5137025
56	0xbdb9c4cf	-0.090707414
57	0x3fa5bddc	1.2948565
58	0x3faaab6e	1.3333566
59	0xbf40a9de	-0.75259197
60	0x3df369cb	0.11885413
61	0xc038bdb5	-2.8865788
62	0xbe612914	-0.21988326
63	0x3e81d068	0.25354314

output_mask f4 [8]
0	0x3f800000	1.0
1	0x3f800000	1.0
2	0x3f800000	1.0
3	0x3f800000	1.0
4	0x3f800000	1.0
5	0x3f800000	1.0
6	0x3f800000	1.0
7	0x3f800000	1.0

weight f4 [192]
0	0x3f56e726	0.83946455
1	0xbe647505	-0.22310264
2	0x3f40586b	0.75134915
3	0xbf1aa148	-0.60402346
4	0x40500de4	3.2508478
5	0xbea0e2d5	-0.3142306
6	0x3ebe302c	0.37146127
7	0x3fb32bae	1.3997705
8	0xbf601f2e	-0.87547576
9	0x3f5fb4cb	0.87385243
10	0x3f05cd18	0.52266073
11	0x3c12290c	0.008920919
12	0x3fe7f8a9	1.812276
13	0x3f89ef93	1.0776237
14	0x3fd7787d	1.6833645
15	0xbd8d3538	-0.06894916
16	0x3f8a90fb	1.0825495
17	0x4046265f	3.096092
18	0xbf017eed	-0.505843
19	0xbe451a0e	-0.1924822
20	0x3ff79ab0	1.9344082
21	0xc0045256	-2.0675254
22	0xbf19b417	-0.6004042
23	0x3fe5850a	1.7931225
24	0x3f840168	1.0312929
25	0x3ea51a73	0.32246742
26	0xbf8681d9	-1.0508376
27	0x40061005	2.0947278
28	0xbec2906f	-0.3800082
29	0xbf8243fc	-1.0176997
30	0x3f50e369	0.81597
31	0xbf3e9883	-0.74451464
32	0x404274d6	3.038381
33	0x4005c27a	2.089995
34	0xbfcacc1a	-1.5843537
35	0xbe81fbaf	-0.25387332
36	0x3fe07ab2	1.7537444
37	0x3dbd2135	0.09234849
38	0xbd708511	-0.058720652
39	0xbdd1b173	-0.10238924
40	0x3e72cf3a	0.23711863
41	0x3f739dc8	0.9516263
42	0xbfb3c459	-1.4044296
43	0x3f307578	0.68929243
44	0x3f7ac0ed	0.9795063
45	0x3fd5174d	1.6647736
46	0x3f80e90a	1.0071118
47	0xbf49a1c1	-0.7876244
48	0xbf4ef640	-0.808445
49	0x3ff138ea	1.8845494
50	0x3f107a04	0.5643618
51	0x3ee1d1f9	0.4410551
52	0xbeafd5a3	-0.3434268
53	0x3fb1e21e	1.389713
54	0xbfa45805	-1.2839361
55	0xbfe249b9	-1.7678748
56	0x3ea34702	0.31890112
57	0x4016023b	2.3438861
58	0xbfa1336e	-1.259382
59	0x3f20674e	0.6265763
60	0xbfbce16f	-1.4756297
61	0x3e8c0308	0.27346063
62	0xbe944c24	-0.2896434
63	0xbed02bad	-0.40658322
64	0x3e2aea21	0.16690876
65	0x3e9e373b	0.30901513
66	0xbeb7be42	-0.35887343
67	0xbf397d77	-0.7245707
68	0x3f5a96fe	0.85386646
69	0x3f011af9	0.5043178
70	0x3f84bf01	1.037079
71	0xbfa4fecb	-1.2890257
72	0xbfe15771	-1.760481
73	0xbf59f6b1	-0.85142046
74	0x3f184020	0.59472847
75	0x3f85bf05	1.044892
76	0x3eb28696	0.34868306
77	0xbebbdcd0	-0.36691904
78	0xc005c7f4	-2.0903292
79	0x3f788716	0.97081125
80	0x3f6466e1	0.8921948
81	0x3f549256	0.8303579
82	0x3c85a834	0.016315557
83	0xbf4907d0	-0.78527546
84	0x3df02ef4	0.117277056
85	0xbefa49b3	-0.48884353
86	0x3f1921e5	0.59817344
87	0xbfdabd2a	-1.7088978
88	0x3ea859a2	0.32880884
89	0xc01b7602	-2.4290776
90	0x3fa04f81	1.2524263
91	0x3f6c9789	0.92418724
92	0xbfe23dbe	-1.7675092
93	0xbf590857	-0.8477835
94	0xbfb4bece	-1.4120729
95	0x3fdc393c	1.7204967
96	0xbf6cbbb5	-0.9247392
97	0xbdd4183c	-0.10356185
98	0xba5975f4	-0.00082954695
99	0x3e9cc772	0.30620915
100	0x3f043caa	0.51655066
101	0x3f8afb5b	1.0857958
102	0x3e9252e7	0.28578874
103	0xbe82834e	-0.25490803
104	0xc00811cf	-2.126087
105	0x3dd4f5c8	0.103984416
106	0xbf8c490f	-1.0959796
107	0xbdd14a44	-0.10219243
108	0x3edb4792	0.4282804
109	0xc002505a	-2.0361543
110	0xbe59af11	-0.21258189
111	0x4000d0fa	2.012755
112	0x3e3a10f9	0.18170537
113	0x3fe9cba3	1.826527
114	0xbfd73b3c	-1.6814952
115	0xbf0f0fe6	-0.55883634
116	0xbf9f70c3	-1.2456287
117	0xbf806252	-1.0030005
118	0x3fb1ccdb	1.3890642
119	0xbfbe985d	-1.4890248
120	0xc01870fc	-2.381896
121	0xbf9ec6ad	-1.2404381
122	0xbeb29211	-0.34877065
123	0x3eec71b6	0.46180505
124	0xbf82777d	-1.0192715
125	0x3ef7c6b1	0.48393777
126	0xbf961e2e	-1.172796
127	0x3fc176e5	1.5114409
128	0xbf1b089b	-0.60560006
129	0x3f4cac57	0.7995047
130	0x3f89dade	1.0769918
131	0x400c14fa	2.1887803
132	0x3fd7018a	1.6797345
133	0xbe07a3a9	-0.13246025
134	0xbfefae9c	-1.8725162
135	0xbe5606c3	-0.20901017
136	0xbf2311c3	-0.6369898
137	0x3f1ab32f	0.6042966
138	0xbe4946ea	-0.19655958
139	0x3f968036	1.1757877
140	0x3feb0cc9	1.8363277
141	0xbeb4ba49	-0.35298374
142	0xbe23acb2	-0.15983847
143	0x3ee88b08	0.45418572
144	0x3fd461c1	1.6592332
145	0x3ed04f4c	0.406855
146	0xbc69d758	-0.014272533
147	0x3ebc3717	0.3676078
148	0x3c2112d6	0.009831151
149	0xbe962fd6	-0.2933337
150	0x3dd288c5	0.10279993
151	0x3f2b17be	0.668331
152	0xbee8ecc1	-0.4549313
153	0x3f7ab238	0.9792819
154	0xbf934fa6	-1.1508682
155	0xbfa1508a	-1.2602704
156	0x400fd005	2.2470715
157	0x3f349d18	0.70552206
158	0xbed3a9c2	-0.41340452
159	0xbe84a62c	-0.2590803
160	0xbf3750dd	-0.7160776
161	0xbe67b552	-0.22627762
162	0xbe09df62	-0.1346412
163	0xbf6cd4b6	-0.9251207
164	0xbfaca204	-1.3486943
165	0x3f831603	1.0241092
166	0x3fe81a1a	1.8132966
167	0xbe57fc50	-0.21092343
168	0xbfbef928	-1.4919786
169	0xc01fe6a2	-2.4984517
170	0x3f77955c	0.9671228
171	0x3fb1542f	1.3853816
172	0xbc3ff92d	-0.011717123
173	0xbf26177c	-0.64879584
174	0x3fb0f4b3	1.3824676
175	0xbf2424f8	-0.6411891
176	0x3ffad001	1.9594728
177	0xbf55b671	-0.8348151
178	0xbcc2dbfe	-0.023786541
179	0x3fbb10fc	1.4614558
180	0xbd8c37df	-0.06846594
181	0x3fc4a4db	1.536281
182	0x3eb19b7a	0.34688932
183	0x3e85fd3b	0.26169762
184	0x3fe35c04	1.7762456
185	0xbee56d9a	-0.44810182
186	0x3eb3ccdc	0.35117233
187	0xbf2a8233	-0.6660492
188	0x3dc24c3f	0.09487199
189	0x3f7edcc7	0.9955563
190	0x3f9be462	1.2179072
191	0xbf97faa0	-1.187336

output_mask f4 [8]
0	0x3f800000	1.0
1	0x3f800000	1.0
2	0x3f800000	1.0
3	0x3f800000	1.0
4	0x3f800000	1.0
5	0x3f800000	1.0
6	0x3f800000	1.0
7	0x3f800000	1.0

weight f4 [32]
0	0xc006dc69	-2.1072028
1	0x3f252617	0.64511245
2	0x3f1d6e05	0.61496
3	0x3f909fce	1.1298769
4	0xbea2f635	-0.31828466
5	0x3ff2e364	1.8975644
6	0xbf58fcbd	-0.8476065
7	0xbf2782c4	-0.6543391
8	0xbe91e3c4	-0.28494084
9	0xbf7e78cd	-0.9940308
10	0x3faf2300	1.3682556
11	0xbfd05f16	-1.6279018
12	0x3c58f2d1	0.013241486
13	0xbf08cf9a	-0.53441775
14	0x3f0a1fde	0.53954875
15	0xbe0762f4	-0.13221341
16	0xc001ac9c	-2.0261602
17	0x3f1b058c	0.6055534
18	0xbf6d9cd0	-0.928174
19	0x3f972e3d	1.1810986
20	0xbecdb29b	-0.40175328
21	0x3f22a98d	0.63539964
22	0x3cc16e49	0.023612158
23	0x3e7336d8	0.2375139
24	0x3f02f85b	0.5116021
25	0x3e608c25	0.21928461
26	0xbf2c6249	-0.6733747
27	0x3f063a9c	0.5243318
28	0x3e0e1d62	0.13878396
29	0xbf7cd827	-0.9876732
30	0x3f280a4c	0.6564071
31	0xbf1559de	-0.5834025

output_mask f4 [4]
0	0x3f800000	1.0
1	0x3f800000	1.0
2	0x3f800000	1.0
3	0x3f800000	1.0

weight f4 [4]
0	0x3ec6ab9a	0.38802797
1	0xbf94a08c	-1.1611495
2	0x3fad1c93	1.3524345
3	0xbfcc75b7	-1.5973424

shifts f4 [3]
0	0xc1d1f71a	-26.245655
1	0xc1d1f71a	-26.245655
2	0xc1d1f71a	-26.245655

scales f4 [3]
0	0x3f800000	1.0
1	0x3f800000	1.0
2	0x3f800000	1.0
